src/cifar10_model_0.5.pt (torch, 374081 bytes, 12 tensors)

conv1.weight f4 [6, 3, 5, 5]
00000000: 1734 86be 0751 aebe c006 9d3e aeaf 0bbd
00000010: f2ef 9c3d 0b9e 70be 2659 dfbe 0dd7 fe3e
00000020: 9ef1 07be 5339 6e3e 323f 6ebe 39fc a1be
00000030: 9aaa 403f 268e e5bd ee74 693d 9781 c6be
00000040: f29f ddbd ea23 0f3f f314 a63c d7b0 113e
00000050: 8357 ac3d 3639 343e 8aa6 013f 005d 183e
00000060: 66c5 243e 2efa 55be ffe9 84be 3b92 fc3e
00000070: 155e babe 8dbb 15bf 4b7b afbd d93f 033d
00000080: 4aff 723f 3d35 5fbe 02b5 9fbe 3296 ddbd
00000090: d05c e23d 7752 823f a611 98be 2614 f8be
000000a0: 90d2 b3be 235e 493d 56a2 da3e 60f8 d8be
000000b0: 42ef 25bf 22f9 c8bd 8dfd d13d 0be4 023f
000000c0: 3e1a b1be 955e f6be 04d1 b2be bac4 4cbe
000000d0: 0b25 e23e 96fe 3a3e 7822 79be 2e12 64be
000000e0: 8124 80bd b627 573f ae9c 8b3d 0182 0cbd
000000f0: 8acd 6ebe adb2 023d 2d58 443f ce79 98bd
00000100: 60ac 75be c8bd 20be 6b40 ae3d 069a 133f
00000110: 8ef8 0fbe f57a 64be f378 febd 95c6 d53d
00000120: 7ad3 9c3e a596 bebd a096 bcbb e3df d7bd
00000130: 9bef 55be dd2e ecbe 7f09 bbbe 433d 4dbe
00000140: 0218 823e 2b20 c63e d5d0 33be f1c8 1abf
00000150: 0595 5339 702d 72be b391 0bbf 2d57 783e
00000160: 4ab1 663f e1d2 2b3e b61b 92be fcb4 033d
00000170: 82bf 163f 7c99 2b3f b8c6 403e 3038 973e
00000180: db66 143f 13f6 0b3d 7386 c8be 2914 b33e
00000190: bd3d d93e cebb 8b3d 5281 fabd 9d7c 4abd
000001a0: 6243 b43e 03fe e13e 48cb 0b3f a39e fabd
000001b0: c0c6 27bf f6ca 223e 1e06 7abe 6c7a 01bf
000001c0: 7180 b23d b70e 393f 3a97 3abe 7d76 f9be
000001d0: 849e 9fbe 8a25 8d3e 4627 853e d079 15be
000001e0: af0a 09bd 8a8f 2d3e 8441 cbbe de73 0abf
000001f0: adc9 e4bd e1a7 083f 2d9f a03e cbae a3be
00000200: d671 ccbe 2689 513b d55e b93e e340 f03e
00000210: 8dbb 91be 2c28 45bf 9d22 29be e5b7 cfbe
00000220: 4636 fcbe 8371 353e 407a 433f 4d40 18be
00000230: 2f5f 29bf 75c8 a0be 3db7 083f 9238 333f
00000240: 6ac4 693d 1e6b e83d 536e e73e 0e06 1e3e
00000250: ff7a 09be 7fe9 4a3e 6be7 74bd edc6 b53e
00000260: 0684 f53e 260a 973e baae bf3d 1ef5 a53e
00000270: b8fe 563f f683 363f f2fb f73d c22e 83bc
00000280: 1ae6 6b3e 1320 dd3e 49e3 9bbe a6eb b3be
00000290: 71b2 b23d 205e bd3e bac7 afbd 2bb1 d3be
000002a0: 26b7 493e 6e27 a33d 5505 3bbf a7a9 12bf
000002b0: 1c00 bebd ded0 483e 0d0c a8be 0e80 82be
000002c0: f044 97be 7882 d6bd d4ef 84bd 4ac8 84be
000002d0: 8dac a7bd 601e d43d 0f92 c4bd ee40 3ebf
000002e0: a5c9 06bf 450b 3b3e 8db4 b0ba 0b8b 32bf
000002f0: 1e68 2ebf d25e 09be 463b e53e 0ceb c3be
00000300: 56e9 44bf 3a89 abbd 670d 953e 5f2c 92be
00000310: d6f1 d3be 5a83 693e 4308 ba3e d2c5 253d
00000320: 7253 2bbe 6339 cebd 15b1 903c 5b70 03bb
00000330: 52b4 dcbd 20fc 923d 77bc b93e 1255 fa3d
00000340: 7a93 a7be a8db adbd f184 913e 43cd a63d
00000350: 2a29 fcbe 2621 b3be 5e1e 2a3e bb12 823e
00000360: 726c b1be 72b7 bfbe 3412 233e 6e55 eb3e
00000370: 62e6 02bf fa66 89be 23ee 093f 6097 6b3f
00000380: e25b 113f 1962 013c 8cae 31bd cddd 733e
00000390: 9694 c9bc 169c 69bd 32d1 f0bc bac5 3dbe
000003a0: d863 dd3e 6598 fabe 8816 913d 2282 0ebe
000003b0: fbea f0bc b14a 82be e55e 043f b2d6 b9be
000003c0: 7955 833e 08e1 553f 3e55 3bc0 4d55 c43f
000003d0: b311 d23b 40a8 ed3d 6ca1 4a3f 1911 bcbf
000003e0: e6fb fb3e 3023 96bd 0a8d 0a3e 3ed1 77bd
000003f0: 23a4 f3bc 1584 4b3c 0c74 303e e4fb 0a3e
-0.26211616 -0.34046194 0.30669212 -0.034103088 0.076629534 -0.23497789 -0.43622702 0.49773446
-0.13275763 0.23264055 -0.23266295 -0.31637743 0.7526032 -0.11208753 0.05699628 -0.38770744
-0.10821523 0.55914176 0.020273661 0.14227615 0.08415129 0.17599949 0.50644743 0.14879227
0.16090927 -0.20896217 -0.25959775 0.49330315 -0.36399904 -0.58489305 -0.08568438 0.03204331
0.9492079 -0.21797653 -0.31192786 -0.10819663 0.11052859 1.0181416 -0.29700965 -0.48452872
-0.35121584 0.04916204 0.42701977 -0.42376995 -0.64818203 -0.09813143 0.10253439 0.51129216
-0.34590334 -0.48119035 -0.3492509 -0.1999692 0.44168887 0.1826118 -0.24329555 -0.2227256
-0.062569626 0.8404497 0.06816994 -0.03430367 -0.23320594 0.03190868 0.76697046 -0.074451074
-0.23991537 -0.15697396 0.085083805 0.57656896 -0.1405966 -0.2231253 -0.12425413 0.10438267
0.30630094 -0.09306077 -0.0057552606 -0.1054075 -0.20892183 -0.46129504 -0.36530682 -0.200429
0.25408942 0.38696417 -0.17560132 -0.6046286 0.00020178042 -0.23650146 -0.54519194 0.24252005
0.9011427 0.16779663 -0.28536767 0.032155022 0.5888597 0.67031074 0.18825805 0.29535055
0.57969445 0.03417022 -0.39165077 0.34976318 0.42429915 0.0682293 -0.12231697 -0.049435247
0.3520766 0.44139108 0.5460706 -0.12237289 -0.65537643 0.15897736 -0.24416396 -0.50577426
0.087159045 0.7228808 -0.18221751 -0.48723212 -0.31175625 0.27567703 0.26006526 -0.14597249
-0.033457454 0.16949287 -0.39698422 -0.5408305 -0.11171279 0.5338116 0.3137144 -0.31969294
-0.399306 0.0031972616 0.36205164 0.46924505 -0.28463402 -0.7701442 -0.1651711 -0.40569988
-0.49260157 0.17719083 0.76358414 -0.14868279 -0.66160864 -0.31402937 0.534046 0.70008194
0.05707208 0.11348556 0.45201358 0.15431997 -0.13425826 0.19815634 -0.05979101 0.3550333
0.47952288 0.2949993 0.09359498 0.32413572 0.8398242 0.71295106 0.12108602 -0.016013507
0.23036996 0.43188533 -0.30446842 -0.35140723 0.08725441 0.36985874 -0.08583017 -0.41346106
0.19698772 0.07966505 -0.7305501 -0.5729012 -0.092773646 0.19610927 -0.32821694 -0.25488323
-0.29544783 -0.10474104 -0.06491056 -0.25934058 -0.08187208 0.10357356 -0.09598171 -0.74317825
-0.52651435 0.18266018 -0.0013481543 -0.6974341 -0.6812762 -0.13415077 0.44771785 -0.38265264
-0.7691854 -0.08375783 0.29111788 -0.28549477 -0.41395444 0.22804013 0.36334428 0.04047186
-0.1673105 -0.100695394 0.017662564 -0.0020055983 -0.10776581 0.07176995 0.362766 0.12223257
-0.32729703 -0.08489162 0.2842174 0.08144619 -0.49250156 -0.34986228 0.16613147 0.25404915
-0.3465305 -0.37444645 0.15924913 0.45963615 -0.51132786 -0.26836377 0.5387899 0.92027855
0.5678083 0.007896923 -0.04337935 0.23815079 -0.024606984 -0.05703362 -0.029396627 -0.18532458
0.43240237 -0.48944393 0.070843756 -0.13916829 -0.029408922 -0.2544761 0.517073 -0.36296612
0.25651148 0.83546495 -2.9270778 1.5338532 0.0064108013 0.11604357 0.7915256 -1.4692718
0.4921562 -0.0733093 0.13530365 -0.060502283 -0.029741352 0.0124216275 0.17231768 0.13572651

conv2.weight f4 [16, 6, 5, 5]
00000000: 115d 383d 48ff bb3d 2a67 1b3e 4bf5 6d3d
00000010: f898 56bd 3a8a 493c ca8a 933d 90a0 a23c
00000020: 5278 9bbd f8e4 45be 1668 8fbe be23 52be
00000030: f837 a2be 4ec2 85be 5aaf 89be b344 eebe
00000040: e8b2 31bf 6f35 39bf fdc4 febe 927b 80be
00000050: f8b3 b3be f22f 01bf 3a0e 24bf 65e4 f1be
00000060: ee37 5bbe fa13 2c3e 2f91 233e 0e57 193e
00000070: 739d 8b3d e0f4 e03c 2ad5 7a3e c651 903e
00000080: 4e12 693e de2a c33d f6a0 55bc 8c24 4c3e
00000090: 3ac3 a83e f6fe 8e3e 7937 283e 69e9 403e
000000a0: 4073 78be f32e c3bd 6ac4 393d 96e7 aa3e
000000b0: ed11 683e 88cc 183e aa90 cfbc be00 e6bd
000000c0: d328 f23d 5889 b83e 02ec 3f3d f34b 89bd
000000d0: bdc6 983c 3b18 003d 56bc c7bd 4b80 1f3e
000000e0: 2edc b23e 4d7b 223e e29b e13c c5e8 4e3c
000000f0: 3a05 8bbe 2e1a 033e 806e 0e3e 28b8 133e
00000100: 8339 263d 0b96 aebc cef6 aebd 8238 f1bd
00000110: 797b 1cbd 6afe 873e 2e30 5bbe b7e9 35be
00000120: 33e9 c3be 0f84 a2be 1e80 2cbd 90f8 b13d
00000130: 882a a33e a462 863e b6c5 293e 5b0f 18be
00000140: 8438 acbc dbb4 ff3d 9ad9 883d 6e1b e23d
00000150: c5e6 ccbd 0ce3 adbe 4bd7 72be 6e8e e5be
00000160: 497a 11bf 1540 c7be 6d67 acbe 1dad d8be
00000170: 4910 9fbe 238b 7abe ee54 9abe 6ad3 d6bb
00000180: 5b6f d1ba 8a6f f13d 36d4 773e 0d9e cd3e
00000190: c8d6 02be 22cb c43d d030 f23c 6ac8 19bc
000001a0: f2e8 24be b6a6 c63d 0202 91bd 56ea 8c3c
000001b0: aa5a 69ba 82cd 963d 6e25 8e3e e2c5 5c3d
000001c0: 7e12 9c3d 590d 283e 2b8b 793e ad0b 0a3f
000001d0: 3b8d 4a3e 98f5 983e 30d8 8e3e 98be 993e
000001e0: f326 acbc 3262 203d b256 ff3d f008 673e
000001f0: f9df 493e d30d 03bd fbaa 71be 5b9d 1abe
00000200: b880 0abd 787a 713c 48de 01bb ac43 02be
00000210: 9699 a0bd 508a 9dbc 36d1 023e 69de 913e
00000220: f27b 803e 587f 333e 2348 983d 3742 243c
00000230: c3af ff3d d6cb 223e 508d 2a3d 4217 7fbd
00000240: 24ad 1e3d ad42 13be 6a12 9dbe 8f03 babe
00000250: b889 37be 88a0 063e 4e37 3d3d 2346 333d
00000260: e23b 653e 751b 373e 1e70 933e 3069 5bbb
00000270: 7ef5 84bd 0ab5 093c 48c3 7abd 8a40 6e3d
00000280: 3eed ed3d 305b 6e3d 725f 163d 0a6d f23b
00000290: f6c6 1d3e c770 283e 35ca de3d 62c3 edbc
000002a0: 6313 5bbe 5898 51bc 10f8 25be baf4 57be
000002b0: 1a4e 49be a883 87be f684 a53c 5cfa 2fbc
000002c0: 84b3 a33c 9ade a53d 7ebc 2b3d aa74 9d3d
000002d0: 9cea 92bd 8d74 27bc 922f f03d cfbd 89bc
000002e0: fb69 31be 2bdf f33d ba75 e43d 121d d83c
000002f0: d5dd 8cbd a559 6ebd 328c 063e e0fd 0dbd
00000300: 1d8f 0dbe 70ab 14be 2e7f 973d 8af9 a83e
00000310: e26d a53d 340c 433d 4e95 d53c f4ca 2d3e
00000320: 425f 6b3e da61 ea3d 4bcf db3d f7e4 823d
00000330: e670 bc3e 71f5 0bbe 1e46 d43d 0661 413e
00000340: c22a 1e3e bb5f 763e 2ae1 dabd 20fa 323e
00000350: 42fb ce3e be37 8e3e 0633 373d 8634 a23c
00000360: b231 603e 319c 953e 0af0 a33d 8389 68be
00000370: 221e 7f3e 5d4f 543e 6a23 8dbd 266f 96be
00000380: b07d c9be f6ec 82bd c658 53be 6eb1 48be
00000390: 761d 9dbe 2b4f fabd 3685 3fbd 3352 60be
000003a0: 8d25 7fbe 4d05 70be 5e4e 33bc fb41 5fbe
000003b0: b28f b7be f2f8 ccbe 10bb d5be bb26 d7bd
000003c0: 0cd5 49be 0893 aabe 133e e2be 3a06 dcbe
000003d0: ed81 7bbd 3a9d debe 1a30 16bf 52f7 22bf
000003e0: 3528 1cbf b6ad 87be 086a a93e bab4 e3bd
000003f0: 4653 21bd 094d c0bd d582 093d 8db9 893d
0.04501063 0.091795504 0.15176073 0.058095258 -0.052391976 0.012301022 0.07204206 0.019851953
-0.07591309 -0.19325626 -0.280091 -0.20521447 -0.31683326 -0.26124805 -0.26891595 -0.46536788
-0.69413614 -0.7234716 -0.49759665 -0.25094277 -0.35098243 -0.50463784 -0.6408421 -0.47244564
-0.21408054 0.16804495 0.15973352 0.14974615 0.068171404 0.027460515 0.24495378 0.28187388
0.22760889 0.09529661 -0.013038864 0.19935817 0.32961446 0.27928895 0.16427411 0.18839039
-0.24262714 -0.09530439 0.04535333 0.3337981 0.22663088 0.14921772 -0.025337536 -0.1123061
0.11824193 0.36042285 0.046855934 -0.06703939 0.018649453 0.031273108 -0.09752719 0.15576284
0.3493361 0.15867348 0.027540151 0.012628739 -0.27152425 0.12802956 0.1390934 0.14425719
0.04058219 -0.02131178 -0.08543168 -0.11778356 -0.03820369 0.2656129 -0.21405098 -0.17764936
-0.38263854 -0.31741378 -0.04211437 0.08689988 0.31868386 0.26247132 0.16579327 -0.14849608
-0.021023043 0.12485667 0.06682129 0.11040388 -0.10004953 -0.33962286 -0.2371494 -0.44835228
-0.5682722 -0.38916078 -0.33672658 -0.42319575 -0.31067112 -0.24467139 -0.3014292 -0.0065559642
-0.0015978621 0.117888525 0.24202046 0.40159646 -0.12777245 0.09609057 0.029564291 -0.009386161
-0.16104487 0.09699766 -0.07080461 0.017201584 -0.00089017546 0.07363416 0.27762932 0.053899653
0.076207146 0.16411342 0.24369495 0.53924066 0.19780438 0.29874873 0.27899313 0.30028224
-0.021014666 0.039156146 0.12467708 0.22562003 0.19714345 -0.031995606 -0.2360038 -0.15099089
-0.033814162 0.0147386715 -0.0019816328 -0.12721127 -0.07841794 -0.019230992 0.1277512 0.28489998
0.25094563 0.17529047 0.07435634 0.0100255525 0.12484696 0.1589807 0.041638672 -0.06227804
0.03873934 -0.14380904 -0.3067811 -0.3633084 -0.1792363 0.13147175 0.04619532 0.04376806
0.22386125 0.17881568 0.28796476 -0.0033479445 -0.064921364 0.0084049795 -0.06122139 0.058167018
0.11617516 0.058192432 0.036712117 0.0073982524 0.15407929 0.16449271 0.10878412 -0.02902383
-0.21394114 -0.012792669 -0.1620791 -0.2108945 -0.196587 -0.26467633 0.020205002 -0.010740843
0.01998306 0.080990985 0.041927807 0.076882675 -0.071736544 -0.010220659 0.11727823 -0.01681414
-0.17325585 0.119078 0.11155267 0.02638105 -0.068782486 -0.05819096 0.13139418 -0.034665942
-0.13824125 -0.14518523 0.073973045 0.33002883 0.08077599 0.04761906 0.02607217 0.16971952
0.22985557 0.11444445 0.10732897 0.06391328 0.36804885 -0.13667847 0.10364936 0.18884668
0.15445998 0.24059956 -0.10687478 0.17478228 0.4042607 0.27776903 0.044726394 0.019800436
0.21893957 0.29220727 0.08004768 -0.22708707 0.24913839 0.207334 -0.0689152 -0.29381675
-0.39353704 -0.06392853 -0.20639333 -0.19598934 -0.3068654 -0.12222131 -0.0467579 -0.21906357
-0.24916668 -0.23439522 -0.010943977 -0.21802513 -0.35851818 -0.4003368 -0.4174428 -0.10505434
-0.19710177 -0.333153 -0.44187984 -0.429735 -0.061403204 -0.4347933 -0.5866715 -0.6365863
-0.6099885 -0.26499718 0.33088708 -0.11118455 -0.039386056 -0.09389693 0.033572037 0.06724844

linear1.weight f4 [120, 400]
00000000: 9e42 653b 4b72 70bc 75d9 59bc 230e e9bb
00000010: 26fe 03bd 95aa ea3a 0d2c 94bd 339a 0bbe
00000020: b64b f0bd a06f 8bbd ef46 08bc 965f 11bd
00000030: f31c e1bd 2e68 a6bd 6d3b 7bbd f2c4 cbbc
00000040: 4309 59bc 7e42 eabd 5671 b2bd ba19 37bd
00000050: 77c4 1abd 30b1 24bb 8d17 8bbd 3c54 9ebd
00000060: 052a 6d3c 7ea5 5dbd 026c 213d a992 4cbd
00000070: 55e4 6dbd 2662 1ebe 1dd2 24bd 2ec8 573c
00000080: ebb3 ddbc f862 03bd 4bc1 72bd da21 91bc
00000090: 2e1b a33d e5c0 ea3c d441 873d 6ac5 b83b
000000a0: 0d1a 65bc cdaa 8e3d b3a3 b83d ea0b 9c3d
000000b0: 6555 383d 3b93 0dbc a789 153d 4d6f 6d3d
000000c0: 0692 163d 6086 583d c03f bdbd 32f6 03bd
000000d0: d966 9c3d 063d 9e3d 9219 123e 9b52 1ebb
000000e0: da2d 0a3d 8020 6b3d 4e0b a3bc c0c9 3bba
000000f0: 2cfa 1cbd 3dcc 593a 905d 73bc 9661 8ebd
00000100: 338c 4e3c 0e83 5e3d 3e47 fb3c 8bf4 483d
00000110: 2839 953d f52c 7c3d 9de0 693d da0b d03d
00000120: 9d3d 143e 796d b33d 7acc 083e 1017 9dbd
00000130: 0582 623d 92d8 2c3e ebb5 253e e3c8 3a3e
00000140: 4445 393d 333f 4d3d cd85 343e f2cd ff3d
00000150: c548 fc3d d687 003d 309d 973d 80e1 793d
00000160: 43a6 ef3c 40b3 3c3c 8dfc 313d 7013 c93c
00000170: d0ac 1a3d 8dcb 54bc 01d1 b7bb da33 66bd
00000180: 0d78 5b3d df1c 263d b39c 603c fdad 583d
00000190: 235d 2fbe c1ac 39be 34da 00be 661e 9bbc
000001a0: 8507 723d d585 ebbd 5eec f0bd 70c5 d9bc
000001b0: 5072 f53c 2b21 ae3d 9e76 a3bc 1ed3 39bd
000001c0: 05be d33c b00e d23c f342 683d 0da6 5a3d
000001d0: 00ae e43c 56f4 f63c 0350 563d 25d0 163c
000001e0: 7b2b 813d 6302 833d 3993 af3d e663 d03d
000001f0: f9bc 8d3d d2be eb3b bd8f b7ba d3fe f3bd
00000200: d244 7cbd d3fe 69bd 0234 ee3c 0dcb 52bd
00000210: 56c7 d2bd 46d8 47bd 933c cfba ca16 8abc
00000220: 563b 03bd 020e 13bd 7b69 2dbd 79b3 9abb
00000230: 2c49 093a 0087 d03b 73d6 b9ba 3e0c b6bc
00000240: c0cb d9bc 7f94 a1bd 2d52 4ebd 8cf8 3abc
00000250: b968 c2bd 5380 99bd c672 213e 85a9 5fbc
00000260: da0b 62bd 5b0b adbd d73f aabd d27b 5b3d
00000270: de68 aabd d525 9fbd 6518 3ebd cb16 10bd
00000280: a168 813c 1854 70bd fe1e 91bd cdb9 06bd
00000290: c675 34bb f8f5 c53d 827c 343c ba85 b1bc
000002a0: d0dc 443c 3aa5 813c 5b64 223e ba54 d13d
000002b0: 26c2 8b3d 23e4 8d3b 3f4c 90bc d8aa 36bd
000002c0: 9a56 073d fd21 fe3b 76b5 acbc 6515 e8bb
000002d0: d364 363c 130e 263d 4800 c9bc 2d30 eabb
000002e0: 46ea 79bd 5d09 debc 02d3 dc3b 36dd 72bd
000002f0: baba d7bc 6322 febc 46f5 8d3c f63d f3bc
00000300: 2cd8 153a fb0e 29bd 2239 d9bc 10d5 9f3d
00000310: 9da7 503d bb61 513d 3b02 f1b8 eb24 4ebc
00000320: f73c 443e 2b5c 2b3e 94f5 883d 9712 90bd
00000330: a847 2dbe 70b3 53bd 00ab 7abd 022d 9ebd
00000340: 18de 12be 9ab5 cabd 8684 87bc a895 77bc
00000350: 4c75 9b3a ee6e 58bd ea2e 4ebd 9ac7 703d
00000360: 9720 b23d 1acb 493d 61fc 163d ba86 a0bc
00000370: 8683 6b3d 4bb5 0e3d 4a09 fe3c c8a3 4dbc
00000380: baad 85bc 161b 14be 8d24 723d 4a7a 553d
00000390: 4b62 d93b f454 803b ef40 b5bc 5be6 30bd
000003a0: d006 17be 65ea b3bd d260 e03c 4a36 b73d
000003b0: 6d30 253d 88a8 f8bc f4bc cc3b ad07 763d
000003c0: 6884 933c db5c c83d 2bd3 2c3c cdbc a33c
000003d0: 190a 1e3d 0a20 05bd 8a23 0dbb 8e75 313c
000003e0: 48d9 a0bc 7785 013c 82d3 6f3d 0246 0b3e
000003f0: 253e 9d3d c285 d5bb 03f3 aab9 3130 2ebd
0.0034982334 -0.014675687 -0.013296475 -0.007112281 -0.032224797 0.0017903621 -0.072349645 -0.13633041
-0.11733191 -0.068084 -0.008317693 -0.03549155 -0.1099185 -0.081253394 -0.06133597 -0.024874184
-0.013246837 -0.11438464 -0.08713023 -0.04470227 -0.03778502 -0.0025130026 -0.06791601 -0.0773091
0.01447535 -0.054112904 0.039409645 -0.049944554 -0.058079083 -0.15467128 -0.040239442 0.013170285
-0.02706333 -0.032076806 -0.05926637 -0.017716337 0.079641685 0.028656432 0.066043526 0.005638768
-0.013983262 0.069661714 0.09015598 0.0761946 0.045003314 -0.0086410595 0.03650823 0.057967473
0.036760353 0.052862525 -0.09240675 -0.032217212 0.07636804 0.07726483 0.14267567 -0.0024158123
0.033735134 0.05740404 -0.019902851 -0.0007163547 -0.03832452 0.0008308327 -0.01485385 -0.06952207
0.012606668 0.054324202 0.03067362 0.04906134 0.07286292 0.061566312 0.057098974 0.101585105
0.14476629 0.087611146 0.13359252 -0.076704144 0.055299778 0.1687949 0.16182677 0.18240695
0.045232072 0.0501091 0.17629166 0.12490453 0.12318567 0.031379543 0.07403028 0.06100607
0.029254084 0.011517346 0.04345374 0.024545401 0.037762463 -0.012987983 -0.005609632 -0.056201793
0.053581286 0.040554877 0.013709235 0.052900303 -0.17125373 -0.18132307 -0.12583238 -0.018935394
0.059089202 -0.11500136 -0.117638335 -0.026583403 0.029961735 0.0850242 -0.019954022 -0.045367353
0.025847444 0.02564177 0.056704473 0.053381015 0.027915 0.030145805 0.0523224 0.009204899
0.06307121 0.063969396 0.08573002 0.10175304 0.06920809 0.0071943784 -0.0014004629 -0.11913838
-0.06158907 -0.057127785 0.029077534 -0.051463176 -0.102919266 -0.04879024 -0.0015810899 -0.01685657
-0.03203901 -0.03590203 -0.042336922 -0.004721102 0.0005237039 0.0063637495 -0.0014178291 -0.022222634
-0.026586413 -0.078896515 -0.050371338 -0.011411797 -0.094926305 -0.07495179 0.15766439 -0.013651256
-0.055187084 -0.084494315 -0.08312958 0.05358488 -0.08320783 -0.07770888 -0.046409983 -0.035177987
0.015796961 -0.058673948 -0.070859894 -0.032892037 -0.0027536019 0.096660554 0.011016013 -0.021670211
0.012015536 0.015825856 0.15858595 0.102212384 0.0682414 0.0043301745 -0.017614482 -0.044596523
0.033041574 0.0077555166 -0.021082621 -0.0070826286 0.011132437 0.040540766 -0.024536267 -0.0071468563
-0.061014436 -0.027104074 0.0067390213 -0.059292994 -0.026334155 -0.031022256 0.01732887 -0.029692631
0.0005716111 -0.041274052 -0.0265165 0.0780431 0.0509411 0.051118594 -0.00011492191 -0.012582044
0.19163881 0.16734378 0.06687465 -0.07034796 -0.16921866 -0.051684797 -0.061198235 -0.07723428
-0.14342535 -0.09897919 -0.016542684 -0.015111364 0.0011860519 -0.052840166 -0.05033771 0.058784105
0.08697622 0.04926596 0.03686178 -0.019595493 0.057498477 0.034840863 0.031010289 -0.0125512555
-0.01631819 -0.14463457 0.05911689 0.052118577 0.006634032 0.003916377 -0.02212569 -0.043188434
-0.14748693 -0.087849416 0.027389918 0.08945902 0.040329386 -0.0303538 0.006248111 0.060065914
0.018007472 0.09783336 0.010548393 0.019987488 0.03858385 -0.032501258 -0.0021536076 0.01083125
-0.019634858 0.007905356 0.05855132 0.13600925 0.07677869 -0.0065161893 -0.00032605985 -0.042526428

linear1.bias f4 [120]
00000000: 51c8 ac3d f221 0e3e 43a2 af3d a39f 4d3e
00000010: b768 833e 0e47 21be edb4 51be c1d9 063e
00000020: 4e65 d7bd 4584 aebd 2387 6d3e a458 443d
00000030: 4d37 583c 8b00 95be e1bf 9dbd ee19 1abe
00000040: 1eb5 c13d 559e deb8 ca9c a5bd f423 4abe
00000050: 50ae 63be 0e9f c13d d8ff b63d 9a36 5fbe
00000060: 8863 c73d 1adc 3dbd 0a2e 8cbe 8638 6f3d
00000070: 4ebd 72be f3bb c3bd fd65 f03d 06e2 573d
00000080: 6e97 eabd 9c47 a63c a2a8 923d deb8 4bbd
00000090: dd5c a5be fb98 0d3d 2044 cdbd 7330 793d
000000a0: 323f 23be 9f39 8abd 527a 29be 4397 94bd
000000b0: 60e0 823e f89b 6b3e e8d8 6e3d 02b8 90be
000000c0: de49 1b3d 93ae e6bd 3b16 98bd 2f82 b0be
000000d0: 78d2 ba3e 76d1 0a3e ba0f 8c3c dd54 28be
000000e0: 6557 3abe 2ee3 62be 1d04 b2be 00d0 7fbb
000000f0: fe1f 3f3e 6026 fabd f395 663c 2a89 20be
00000100: 2992 b23d d54f 8b3e d505 4ebd 4607 8dbe
00000110: d2ec da3d 7299 703e 76a8 a1bc 36e8 593e
00000120: 56e9 5e3e 4b32 a93d 927d 8d3c 4605 01bc
00000130: c635 543d cd57 fc3d 2d61 a63d eb96 3abe
00000140: 36f2 ab3d 6a17 2abe 336c eabb d763 8b3d
00000150: d63f 273e 73e2 6b3d b2bc 833e ad61 d7bd
00000160: c034 59bd 3a84 33be 17ba 423e ce79 0dbe
00000170: 3390 95bd b367 f3be 73e7 733d 8058 ad3d
00000180: cb12 6dbe d420 89be b2d3 3bbd f89e 23be
00000190: 4221 4dbe 6564 4e3d 679f 3fbd d223 a4bd
000001a0: be41 093e fadc 2abc 8a6b 573d e96a b33d
000001b0: 13c1 ce3c f60e 10bd 2e3c ecbd 7898 4a3d
000001c0: 0e7f a13d 5465 3d3d 3004 a33d 76e5 0ebe
000001d0: ca36 63bd 4eb3 efbd f7f4 0d3e b8f9 18be
0.08436645 0.13880137 0.08575871 0.20080428 0.2566583 -0.15749761 -0.20479174 0.13169004
-0.10517369 -0.08521322 0.23196082 0.047936097 0.0131967785 -0.29101977 -0.077026136 -0.15048954
0.094583735 -0.000106152766 -0.08086546 -0.19740278 -0.22234464 0.094541654 0.08935517 -0.21798173
0.09735781 -0.046352483 -0.27378875 0.058403514 -0.23705027 -0.09557333 0.11738203 0.052705787
-0.11454664 0.020297818 0.071610704 -0.04973685 -0.32297412 0.03456972 -0.100227594 0.06083722
-0.15942076 -0.067492716 -0.16550568 -0.072554134 0.2556181 0.23008716 0.058312327 -0.28265387
0.037912242 -0.11263766 -0.07426115 -0.34474322 0.364887 0.13556466 0.017097343 -0.16438623
-0.18197401 -0.22156975 -0.34768763 -0.003903389 0.18664548 -0.12214351 0.014073837 -0.15677324
0.08719284 0.27209345 -0.05029853 -0.27544612 0.10689701 0.23496035 -0.019733649 0.21279988
0.21768698 0.08261546 0.01727179 -0.007874792 0.051809095 0.12321434 0.081240036 -0.18221633
0.083958074 -0.16610494 -0.0071540116 0.06806152 0.16332945 0.057589006 0.257299 -0.10516677
-0.053028822 -0.17530909 0.190163 -0.13815996 -0.073028944 -0.47540054 0.0595469 0.08464146
-0.231517 -0.26782858 -0.045856185 -0.1597861 -0.20032218 0.050388712 -0.046782877 -0.08014645
0.13403985 -0.0104286615 0.05259279 0.08760626 0.02523855 -0.035170518 -0.11534916 0.04946181
0.07885562 0.046239212 0.07959783 -0.1395472 -0.055472173 -0.117041215 0.13862978 -0.1493901

linear2.weight f4 [84, 120]
00000000: 46e2 933c ceb1 82bb 1261 0dbe 27b7 273e
00000010: 2c07 3e3e f348 ebbd a10d 883c 4ae6 843e
00000020: 0d94 d73d 80ef 603d ea83 9d3d 32e6 b13d
00000030: 3574 f9bd aa68 cbbd b862 1c3d 7027 1dbe
00000040: 10dd 78bc 3406 38bc bed0 ca3d 2a2c 673c
00000050: a60c aabc a2bf 823d ca1d 00be 30c1 87bb
00000060: 62a8 75bd 2a50 35be ac9f 43bd 5461 9abd
00000070: aed0 d0bd e0b3 e53d e6e3 963d 9a33 a0bd
00000080: 90b6 39bd 7e3d 34bc 6e04 d2bd 9d8b 59bd
00000090: 4dfc 5abd ce5a 40bc fba2 c5bd 70da 7dbd
000000a0: e5f6 dcbd 8271 643d 2e40 dfbc c4a6 40bd
000000b0: 1ee3 38be 3dac 8c3d ced9 dd3c ca1f f73d
000000c0: 74f3 98ba 0912 12be 3dfd e8bc 6c6a 07bd
000000d0: 647e a1bd 9d9f 7f3c 2b95 b1bd 7a07 553e
000000e0: 5ed7 38bd 6d53 e63d 1a94 b6bd 42f9 16bc
000000f0: 22c5 b6bc 1f40 243d 8040 d139 8a21 5d3e
00000100: ef3f c8bb 320c d0bb 82a2 193e db75 cebd
00000110: d21f 913d 7dd9 b03d c3a7 943d 1bdc 0abe
00000120: 56a4 203e 2c75 aabd 34a6 c9bd 9695 6ebd
00000130: 0202 d53c 938e e53c d22a 39bc 94c2 b33c
00000140: faba 343d 55b8 1bbc 668f 823d 23d7 e9bd
00000150: 9928 a2bd 58b0 6fbd 82b5 09be 1f9e 00be
00000160: 4e17 22be aa71 d23d b283 b4bc b6dc 053c
00000170: 606f 50bc f5dc 02bd 7b27 a6bd 6695 a83d
00000180: 043b 8f3d c34d 9abc f8ab 7abd f1f7 a43c
00000190: c349 683e c594 26bd c814 4abe 81f5 13bd
000001a0: 5c7c 21bd 3a65 2fbc a21b 6dbd e59f babd
000001b0: 18c4 27bd b958 0dbe 9be4 7b3c 2d16 53be
000001c0: 0af4 77bd 263d a83c 0cc5 c23c e68e 9fbd
000001d0: 4aee c2bd 4102 acbd 8e38 913d 6265 75bd
000001e0: 6180 2fbc 8b24 da3d fab5 ccbd 21ac b03c
000001f0: 8098 82bd 197a b33a 5f68 28bd b427 8d3b
00000200: e0ff e2bc 0518 963d de96 4cbd 6247 99bd
00000210: 5a7a efbd 9b0f 353d fb99 a73b 56ee cabd
00000220: ad7b 52bd 1e43 2fbc 0b32 7fbc 3a81 fc3c
00000230: 726d 043c 2050 633b 9a00 f0bc 2281 d13b
00000240: 75ec 22be ea09 753d 4f54 983d a6d1 c03d
00000250: e39c 533c c261 703d 7bd4 fabd 5825 69bd
00000260: c6aa 303d fe7c 27bb 2b48 043d aae6 0cbc
00000270: c26e de3c 939f 56bc cafd 35be faac 8d3d
00000280: 00c4 e6bc e262 af3d 6d77 9c3d 86be bebc
00000290: ddcb b53c 0f3e 44be fe74 33bd 5289 1b3d
000002a0: 6c38 02bc 08a4 bd3d c812 463d 7ab4 2abd
000002b0: e277 da3c 50e9 063d 40fe 4cbd 05bb df3d
000002c0: 001e 513d 091b 44bd 062d 39bd e8e9 c5bd
000002d0: 2f7a 1cbd 5dce 713d a249 b5bd d547 973d
000002e0: 2004 a43d 109f f83c 5bc0 32bd 9219 2b3d
000002f0: 9abe ffbd c501 53be 2a38 b03c 99f9 05bd
00000300: cddc f03d 5d8a 06bd 13ce 08bd fb02 f83d
00000310: f6d3 573b 8258 96bd 0e57 cc3c bfb5 9bbd
00000320: b320 453d 4b9c eabc 95f4 ab3c f3a3 56bd
00000330: 4ca0 bb3d ba2a d03c 75f8 623d ba0e 47bd
00000340: 69ff a83d f2a4 373d 0745 0d3e 02b1 afbd
00000350: ea2d dbbc 557a 703c 2c90 873d 27e0 ca3d
00000360: 3b2d df3d 622d 3b3d b2f6 e7bc c242 88bc
00000370: 6acd d4bc e63e a7bd a895 f13c 9efc da3d
00000380: 13d1 e2bc ebad 103b c679 203e 3861 053a
00000390: 6581 8abc b5e4 47bb 46eb 81bd 8464 85bd
000003a0: 75db e0bb 2627 333c 6614 ea3c c21f 733d
000003b0: cb63 043d 4fda 8e3d 210b 3abc ed9e f5bd
000003c0: 1eea 013d eedf f3bc 2c9a bcbd e8b5 a2bc
000003d0: 4157 433b 5db7 dbbc 68bf 10ba 5040 513d
000003e0: b8f2 87bd 99aa 983c 0221 b4bd 207b fbbc
000003f0: d289 d5bd ba61 3ebd 4e2e 963c 96c5 8e3d
0.018052232 -0.003988481 -0.1380656 0.16378461 0.18557423 -0.11488523 0.016608061 0.25956947
0.10526285 0.054915905 0.07691176 0.086864844 -0.12180368 -0.099320725 0.038180083 -0.15347075
-0.015189424 -0.011231948 0.09903096 0.014109651 -0.020757984 0.06384207 -0.12511364 -0.004142903
-0.059975035 -0.17706361 -0.047759697 -0.07538095 -0.101960525 0.11215949 0.07367687 -0.07822342
-0.04534012 -0.011000989 -0.10254751 -0.05311166 -0.05346327 -0.0117403995 -0.09650227 -0.061975896
-0.10789279 0.055772312 -0.027252283 -0.04703404 -0.18055388 0.06868789 0.027081396 0.1206661
-0.0011669234 -0.14264692 -0.028441066 -0.033060476 -0.07885435 0.01560202 -0.0867103 0.20803633
-0.045127265 0.11246381 -0.08914967 -0.009214701 -0.022310797 0.040100213 0.00039911643 0.21594825
-0.006111137 -0.00634911 0.15003398 -0.10081073 0.07086147 0.086352326 0.072585605 -0.13560526
0.15687689 -0.0832313 -0.09846154 -0.058248125 0.026001934 0.028022086 -0.011301713 0.021943368
0.044123627 -0.009504397 0.06375007 -0.11417987 -0.079179 -0.058517784 -0.13448146 -0.12560318
-0.15829203 0.10275586 -0.022035453 0.008170297 -0.012721866 -0.031949002 -0.08112999 0.082316205
0.06993678 -0.018835908 -0.06119916 0.020137759 0.22684388 -0.04066922 -0.1973449 -0.036122803
-0.03942524 -0.010705287 -0.05788768 -0.09112529 -0.040958494 -0.13803376 0.015374328 -0.20613928
-0.06053547 0.02053697 0.0237756 -0.077909276 -0.09518106 -0.083988674 0.07090865 -0.05991114
-0.01071176 0.10651501 -0.09995647 0.021566452 -0.06376743 0.0013693004 -0.04111516 0.0043077115
-0.027709901 0.073288 -0.049948566 -0.07484318 -0.116932586 0.044204336 0.0051147914 -0.0990874
-0.051387478 -0.010697154 -0.015575896 0.030823339 0.008082734 0.003468521 -0.029297162 0.0063935677
-0.15910514 0.059823908 0.074379556 0.09414987 0.012915823 0.05868698 -0.12247559 -0.05692038
0.043131612 -0.002555668 0.032295387 -0.0085999165 0.027152423 -0.013099569 -0.17772594 0.06917758
-0.028169632 0.08563782 0.07639966 -0.023284208 0.022191936 -0.19164298 -0.043812744 0.037972756
-0.007948022 0.09259802 0.048357755 -0.041676022 0.026668493 0.032937348 -0.05004716 0.10924343
0.051054 -0.047877345 -0.045208953 -0.09663755 -0.03820246 0.059034694 -0.08851935 0.07386748
0.08008599 0.030349284 -0.043640476 0.041772433 -0.12487526 -0.20606144 0.021511156 -0.032708738
0.117608644 -0.032846797 -0.033399653 0.121099435 0.0032932735 -0.073411 0.024943855 -0.07603025
0.048126888 -0.02863898 0.02099065 -0.052402448 0.091614336 0.025410999 0.05541273 -0.04859803
0.082518406 0.04483504 0.13795863 -0.085786834 -0.026755292 0.014677604 0.066192955 0.09906035
0.10897299 0.045697577 -0.028315876 -0.016633395 -0.025976855 -0.08166294 0.029490307 0.10692714
-0.027687585 0.002207632 0.15671453 0.0005088034 -0.016907403 -0.003050131 -0.06343703 -0.065133125
-0.006862099 0.010934627 0.02857418 0.05935646 0.032321732 0.06975233 -0.011355192 -0.11993203
0.031717412 -0.029769864 -0.092090935 -0.01986213 0.0029806646 -0.026820833 -0.0005521686 0.051086724
-0.06638092 0.018636035 -0.08795358 -0.030698359 -0.10426678 -0.046479918 0.018332627 0.0697128

linear2.bias f4 [84]
00000000: 5fb3 823d a209 03bf 129a b4be 84d8 c33d
00000010: be1c 0e3e b789 b13e 4005 543e 06c5 4c3d
00000020: 2220 f0be b0e5 523e b29b 543f 1ea8 d7bd
00000030: c019 d7be d0cd 5f3e 2d3f 593c fc0c b73e
00000040: 851f 07be e5c7 5f3c b2a1 ccbe 7785 a7bd
00000050: 35c6 d93a 9e1c 583f a378 f9bd 0230 b53e
00000060: 3686 8b3c 2aec 69be 8a60 253e b89f ac3d
00000070: bb2a ec3e c254 c3be 57ab a43e 0d07 613e
00000080: d0b8 efbe 5508 a9be 1481 0a3d d62a 99bd
00000090: b6f8 a13e aa7d be3e 4350 9bbd ec59 853d
000000a0: 1b09 a83c f1f2 33be 86dd 893e dd19 d8be
000000b0: 3914 00bf 59ab 94bd d545 df3e f97c a8be
000000c0: e157 17bf a015 57be 3070 16be 011a aebe
000000d0: 8298 033f 873f 08bd 7687 73bc 9b50 4ebd
000000e0: 33d7 5ebc 8f94 873e 92e8 3f3e 15d3 f2bc
000000f0: 527b 30bd ca13 c53e b597 f1be fa3f d03e
00000100: 5529 1c3e 5e76 1abe 12f1 a3bc 2e72 913e
00000110: 83d9 163e 3e7c 583e 98b3 d73e 68db d53e
00000120: 8179 383f 98ab 113f 7e63 52be 24a2 c03c
00000130: f013 12be d57d 7a3e e3b6 76bd 6ff4 22bf
00000140: f648 12bd a568 2e3e 9d8a 063e 00b6 2e3d
0.063818686 -0.51186574 -0.35273796 0.095627815 0.13878152 0.3467538 0.20705128 0.049992584
-0.46899515 0.20595431 0.8305007 -0.10530113 -0.42011833 0.21855855 0.013259691 0.35752094
-0.13195617 0.013658498 -0.39967114 -0.08179753 0.0016614856 0.84418666 -0.12181213 0.3538819
0.01703177 -0.22843996 0.16150108 0.084289014 0.4612635 -0.38150603 0.32161972 0.21975346
-0.46820688 -0.3301417 0.033814505 -0.074788734 0.31635064 0.3720525 -0.07583668 0.06511292
0.020512154 -0.17573144 0.2692682 -0.42207232 -0.5003086 -0.072592445 0.43607965 -0.32907847
-0.5911847 -0.21004343 -0.14691234 -0.34004214 0.51404583 -0.03326371 -0.014863839 -0.05036984
-0.013601112 0.2648053 0.18741062 -0.029641667 -0.043086357 0.3849166 -0.47186056 0.4067381
0.15250142 -0.15084216 -0.020012412 0.28407425 0.14731412 0.21141145 0.42129207 0.41768956
0.720604 0.56902456 -0.20545766 0.023514815 -0.14265418 0.24462064 -0.060233008 -0.63654226
-0.035714112 0.17032106 0.13138814 0.042654037

linear3.weight f4 [84, 84]
00000000: d2c7 863a 2bb3 d53d 64b5 91bd 6236 c7bd
00000010: 92f5 ce3c 48a4 cfbd e8d3 e73d ee4e 163e
00000020: 336f 14bd 2a91 d3bd eefb 75bd 9605 9f3c
00000030: 8daf 983d db01 e73d dc4d 453b aa0f 46bd
00000040: 40d0 06be 6c2f 8f3c cadd 00bd a3b4 5d3d
00000050: fdb6 b53d 6298 40bd e2d3 63bc 1ea7 22bb
00000060: c582 4bbd 5017 8abd 3221 38bd 7ed1 9bbd
00000070: bec0 653c 3e31 17bd 4e43 4d3c c0fb 83bc
00000080: f282 0cbe 13db 663d d242 33bd d027 dabc
00000090: 2683 84bd 2210 0c3d 225a c03d 8a48 a23d
000000a0: 53a4 f9bd 9a1c 423d 7c75 babd cb3f bebd
000000b0: 6b14 ebbd 6b69 443c cbca 38bd 81b8 473d
000000c0: 3189 063d c657 5b3c 467c 7c3d bc5e 00bd
000000d0: 9641 293c 5e6f 32bc b094 b63b 38bf e2bd
000000e0: d386 b7bd 322a f03c 3279 973d 9bb2 713d
000000f0: 5f10 893c 420d edba 5b4a 79bc 0845 edbd
00000100: a39d e3bd 307f eb3d 6e9b aabc 866f d83b
00000110: 0220 b2bb ef18 a1bd c842 f0bd 5035 e4bb
00000120: 8de9 723c e618 323d 468b 7c3d b3ae 3e3d
00000130: 583c 25bc 4ef3 5bbd c317 a63d def2 b13d
00000140: df8c bfbd 7b61 4abd 6cd6 04bd 26cd 7fbd
00000150: 6e6f c6bd 8ec4 123c 29b8 383d 396c 49bd
00000160: a84a 693d 4a9e 573d fd59 d3bc 8ddc 1b3b
00000170: 6839 fdbc 5a5d 083b 7dc7 34bd 5a2a 08bd
00000180: 9646 90bd a69b 69bc 2ee6 b3bd 3367 74bc
00000190: e204 acbc 0887 07bd 56d0 82bd 1d8f 65bb
000001a0: 7e73 b8bd 6a58 c33a 2ce1 25bd ed70 81bd
000001b0: 306b b23b 1e58 fabd 49a4 3dbd 866b d7bb
000001c0: dad8 713c 9877 5cbd 62e6 823d e95b 8cbc
000001d0: 859b 6bbd dbc7 67bc 5575 953d baa8 213c
000001e0: 5579 febb 8652 b23d 7633 d2bc 8380 3a3b
000001f0: cba1 eeba 3d67 72bd cec5 b5bc 2daa 10bd
00000200: eea6 2fbd 3089 6d3d c396 e83c a82c ebbb
00000210: cd7b 5abc b612 e3bc b9fa bdbb de95 4fbc
00000220: 50c4 c1bc 9d5b af3c 7a63 6a3d 0b08 68bb
00000230: f45f 323d 7987 4a3d a60e a73c 0ad7 bb3c
00000240: 1e6d 0fbe 50ef 97bd f8ae 1c3c bdd2 643c
00000250: 50a4 65bd 4778 1b3d 5d31 5abd ae03 573d
00000260: 19d9 cbbd 4957 3ebd d344 2a3d 251d a43d
00000270: 9341 8f3d 93ee 18bd a2d7 82bd f2e7 c13d
00000280: 0017 11bd cbb8 af3c 0891 6bbc 1b8f 74bd
00000290: cbc8 1ebd 3677 74bd 764f efbb 5531 663d
000002a0: 0ce5 49be 8627 11bc d8cc d9bc c626 9d3d
000002b0: d3b6 1f3e c488 06be 6b0b 4c3c d440 44bd
000002c0: 7d8b 76bd a5df e4bd a7bc b4bd 4e3a 99bd
000002d0: 62e1 473d 2ac5 5f3d 1f96 06bd 2e1c 463e
000002e0: c6e2 8e3d 9606 f5bc e2d0 45bd b01e 09bd
000002f0: abc9 e63d 5dfe b1bd b65d 41be f31e 163e
00000300: 2e04 e43d a23d 853b d39e 773d e65a 25bd
00000310: 8595 533e 6a73 c23c e6e4 94bc 52c0 613c
00000320: 72e1 83bd 480f 17bd 4d93 543d 8aa0 89bd
00000330: 9fc2 8cbd 2222 2fbd 0fe9 263d 2e1f b1bd
00000340: dbee 68bb baa8 2ebd 0c2c 283d e33d c1bd
00000350: be7b 71bd 7055 75bd 2deb 793d 5b25 92bd
00000360: e018 50bd 3ae0 a83d 6daa 85bc 2383 6b3d
00000370: 06e5 503b b67e 2fbe a6f6 25ba 5221 1a3e
00000380: be48 75bd 3a9b df3d 3e13 87bd 3e09 8abd
00000390: e538 efbc 11b0 c339 6316 a0bd 1885 1bbd
000003a0: ce8b ab3d e505 22bd 81c5 c6bd dd94 5bbd
000003b0: 2327 d7bd aec6 50bd fab9 14be a694 29be
000003c0: 7e53 f1bd 1f43 063e 4217 f23c 6565 18bd
000003d0: 2261 2d3d 1802 833d aa04 05bd 8685 2a3e
000003e0: 0dc7 dcbd 90ed 903d 5048 60bb ebc9 1a3e
000003f0: 6642 b53b 3b35 9bbd e2d4 79bd 8dfe f3bd
0.001028294 0.10434564 -0.07114676 -0.097271696 0.025263581 -0.10138756 0.11319715 0.14678547
-0.03623886 -0.10330422 -0.060054712 0.019411843 0.07455359 0.11279651 0.0030106222 -0.048354782
-0.13165379 0.017478667 -0.031461515 0.054127347 0.08872793 -0.047020324 -0.013905497 -0.0024818848
-0.04968526 -0.06742728 -0.044953533 -0.07608317 0.014023004 -0.036912195 0.012528254 -0.016111255
-0.13721827 0.05636127 -0.043764897 -0.026630312 -0.06470327 0.034195073 0.093921915 0.07923992
-0.121895455 0.047390558 -0.091044396 -0.09289511 -0.11478504 0.011988024 -0.045115273 0.04875994
0.03284568 0.013387626 0.061641954 -0.031340346 0.010330578 -0.01089081 0.005571924 -0.11071628
-0.089612626 0.029316995 0.07396163 0.059008222 0.01673144 -0.0018085616 -0.015215482 -0.11585432
-0.11114051 0.114988685 -0.020826068 0.0066050915 -0.0054359445 -0.07866084 -0.117314875 -0.006964363
0.014826191 0.043480776 0.06165626 0.046553325 -0.010085188 -0.05369883 0.08110001 0.08688901
-0.09353041 -0.04940937 -0.03243105 -0.062451504 -0.09689222 0.008957995 0.045097504 -0.049175475
0.056955963 0.05264119 -0.025799746 0.0023782582 -0.030911162 0.0020807595 -0.04413556 -0.033243515
-0.07044713 -0.014258301 -0.08784138 -0.014917183 -0.020998422 -0.03308776 -0.06387393 -0.003502793
-0.090064034 0.0014903669 -0.040497944 -0.06320367 0.0054449067 -0.12223838 -0.046299253 -0.006574097
0.014761174 -0.05382499 0.06391598 -0.01713367 -0.05752136 -0.01414677 0.0729777 0.009866888
-0.0077659287 0.08707146 -0.025659304 0.0028457947 -0.0018206177 -0.059180487 -0.022189047 -0.035318542
-0.042883806 0.05799216 0.028392201 -0.0071769543 -0.0133351805 -0.027718883 -0.0057977107 -0.012670008
-0.02365318 0.02140599 0.057223774 -0.0035405185 0.04354854 0.049445603 0.020392727 0.022929687
-0.14006469 -0.07418692 0.0095632 0.01396626 -0.056064904 0.037956502 -0.053269733 0.052493744
-0.099535175 -0.04646996 0.041569542 0.080133714 0.06994929 -0.037336897 -0.06388785 0.09468068
-0.035422325 0.02145042 -0.01437784 -0.05970679 -0.03876571 -0.059684 -0.0073031737 0.05619939
-0.1971628 -0.008859521 -0.026586935 0.07673411 0.15597086 -0.1313811 0.012453894 -0.047913387
-0.06019162 -0.11175469 -0.08825045 -0.07481824 0.048798926 0.05463139 -0.03285801 0.19346687
0.06976847 -0.029910367 -0.04829491 -0.03347653 0.11268934 -0.08691094 -0.18883404 0.14660244
0.1113361 0.004066185 0.0604542 -0.04036989 0.20662506 0.023736674 -0.018175554 0.013778763
-0.06439485 -0.036879808 0.05189829 -0.067200735 -0.068730585 -0.04275716 0.040749606 -0.08648525
-0.003554276 -0.04264138 0.04105763 -0.09435632 -0.0589559 -0.059895933 0.061015297 -0.07136031
-0.050804973 0.08245893 -0.016316617 0.05749811 0.003187479 -0.1713818 -0.0006331004 0.15051773
-0.059883825 0.10918279 -0.06595467 -0.06740044 -0.029201934 0.00037324478 -0.0781677 -0.037968725
0.08376275 -0.039556403 -0.0970564 -0.053608764 -0.105055116 -0.050970726 -0.1452407 -0.16560611
-0.11783503 0.13111542 0.029552106 -0.037206072 0.04232896 0.06396884 -0.03247515 0.16652498
-0.107801534 0.070765615 -0.003422279 0.15116088 0.005531597 -0.07578512 -0.060994036 -0.11913786

linear3.bias f4 [84]
00000000: ea52 4fbc 8eb0 b53f 6e6c 0f3f 38f3 e7bc
00000010: 0158 1f3e 5520 1d3e 6e8b 223f 56d2 343e
00000020: 10c4 97be 6008 333d 052e 9a3e 20cc d5bd
00000030: fae3 15be 3b2d ab3f 8182 243f 003e 273f
00000040: 0ac2 9e3d 4e5e 9a3e a202 2b3e aee7 ed3e
00000050: 6b06 1b3f 2bc8 cb3d 8458 363f a3ac 983e
00000060: 0d57 f0bd 5911 1abd 9e26 32be 0e49 f33e
00000070: 69fb 89bc 52e8 83bd ac35 043f 22e2 443f
00000080: 03ff 62be 3b6a 43bd 778d 1a3f 7271 c43b
00000090: 26f2 49be 0278 50be 8e55 1f3f c3b9 2a3e
000000a0: 3673 fdbb 0fd2 3bbe e82a 7f3e fd76 e83d
000000b0: 52e6 be3d cce7 303e c62a 423f 1ea3 c4bc
000000c0: 99a9 443f 8f16 953e 86e5 37be f2aa 8b3e
000000d0: 4e5b d23e e50e 57bd 7e8f 0a3f dd72 ed3e
000000e0: 30a8 213f 549b 913f 0425 08be 41c7 473e
000000f0: fb09 0c3d 8eca 603f 7c3d 373f 63ba 0cbe
00000100: 06ec 853e 4f13 803f 8e9a 8d3d ae9c 92bd
00000110: f079 623e 6d15 fa3d addb 523f 6086 dd3f
00000120: 1203 8f3d b2fd 553f f4b6 9dbe b532 fe3d
00000130: 65d1 e13e e0f0 c5bd b262 f1bd 167e 22bd
00000140: 26db ae3d 70b7 e03f 257d 533e 6176 a23e
-0.012654046 1.4194505 0.56024826 -0.028314218 0.15560915 0.15344365 0.63494 0.17658362
-0.2964177 0.04370916 0.30113235 -0.104393244 -0.14637747 1.3373178 0.64261633 0.6532898
0.07751854 0.30150074 0.16700223 0.4646582 0.6055667 0.099502884 0.71228814 0.2981921
-0.117353536 -0.0376142 -0.17397544 0.47516674 -0.016843515 -0.06440796 0.51644397 0.7690755
-0.22167592 -0.04770873 0.6037211 0.005994969 -0.19721279 -0.2035828 0.6223992 0.16672425
-0.0077346815 -0.1834185 0.24918711 0.1135082 0.09321274 0.17275923 0.7584652 -0.024003562
0.76821285 0.29118773 -0.1795865 0.27278858 0.41085285 -0.05250444 0.541252 0.46376696
0.6314726 1.1375527 -0.1329537 0.19509603 0.034189206 0.87809074 0.7157819 -0.13742976
0.26156634 1.0005893 0.069142446 -0.071587905 0.22116828 0.12211118 0.8236645 1.7306633
0.069830075 0.83590233 -0.30803645 0.12412015 0.44105068 -0.09665084 -0.11786403 -0.039671026
0.08537893 1.7555981 0.20653208 0.3173094

linear4.weight f4 [256, 84]
00000000: 5507 823b fa43 b7bb 038e 773d cb72 5f3d
00000010: 02d4 8e3d 4e08 97bc 4eef e63c 6d4f 96bd
00000020: 3c6e a93d 8ba6 fabd af22 2a3d 978d 3c3d
00000030: 32ae debc e4f5 39bd a3e9 e93c bece ce3d
00000040: ebac 24bd cd68 5a3d 0268 a9bc 8e5b b4bd
00000050: 9225 f8bc d2dc 4ebd f8f8 853d 5f4e 423d
00000060: 9e34 b13d 7c92 b2bd 5d88 dbbd b509 f83c
00000070: 99d8 8d3c d2e9 a1bd 79b1 953d 3eae 05be
00000080: b81c 6bbc a222 91bd 33d3 163c e0eb 633d
00000090: 3e2f 313d 8e22 2e3d 2a93 d5bd 0838 adbd
000000a0: be19 8dbc a3de 28bd 00e6 e9bc a20c 683d
000000b0: 8346 543d 3c58 313c 1361 6d3d 20e7 0abe
000000c0: d275 853d 30d8 b2bc 3285 f5bd 3ac2 d13d
000000d0: 22ac 403d e934 b13d 4938 bfbd 40c6 083d
000000e0: 0fb7 983d 5b14 f33d a858 4c3d e4af 99bd
000000f0: ff14 96bd 2506 bcbd d5c3 ebbc 6afd 0cbc
00000100: e6e3 b0bd 53f3 e23d 85a4 b23c e01d 453d
00000110: 7d80 6abd 6e31 e53b b02e 80bd 9e5f 1b3e
00000120: e72a 023d a24c 353d 8b97 2dbd 7301 e73b
00000130: 96a6 9bbd 5576 e9bd 73d5 c73d 8ec4 9e3c
00000140: f98f 1cbc 752b 1a3e b02c 633d 0dea 85bd
00000150: 5401 9fbd aa6f cd3d 6b14 973d 0a87 9f3d
00000160: c63d 30bd b9cc 9ebd 28f4 783d 515c a2bc
00000170: 08c7 133c 264f 2ebd 6e82 913d e255 aa3d
00000180: c091 acbd 7f8f 92bd f22a 773c c0ea 85bd
00000190: 4081 e7bc 3c72 3d3c e56e 3bbc 3273 d0bd
000001a0: 76a2 08bc 380a 243d 2ee2 31bc a61e 1abd
000001b0: 92d6 3d3d 4698 653d 6a1d 803d 4164 99bd
000001c0: e671 ad3d aaf2 bbbd 394a 9fbd 224d 2f3d
000001d0: 06b0 893d ae30 9abd 1273 c43d a0f8 8a3d
000001e0: 2ef7 383d f0df a23d 3567 983c 672b a4bd
000001f0: e6aa a53c 6a77 61bd acd4 0e3d 6512 e13d
00000200: 5850 c33d 7efa 40bd 8e17 453d 28cc 28bd
00000210: db94 67bd ea46 c4bd 0b4e 96bd 3a86 b43a
00000220: a340 4f3c 5ab1 e8bc 38e5 283c 8992 90bd
00000230: e640 9bbd c20b 98bc 9e04 7cbd 58e4 8b3d
00000240: 9229 093d e6f4 953d 40b3 3c3d 0b3a 6dbd
00000250: 86f3 70bd 96d8 37bd 553b e8bc 4d05 83bc
00000260: f54a 2fbc 008c d03c 246e 83bd 4ee6 3f3d
00000270: 7ed1 b2bd 406d 33bd 153b cbba 8431 8fbd
00000280: 47fa 33bd f8b6 ad3d 8d1a e53c 88b7 8dbd
00000290: 1a53 46bc 3972 003e fd84 62bd f931 8d3d
000002a0: ccf0 c73d 2a74 42bb 0b40 5a3d b1bc 253d
000002b0: 5820 bb3d 136a 8ebd a0d8 5f3d 26cb c73d
000002c0: e29b 93bd ae06 bf3c 341d 47bd aef8 5b3d
000002d0: 2393 94bd 8325 d1bd 4964 3cbd aa64 d7bc
000002e0: 85f8 8ebc 2216 89bd 2b00 233d d75e b33c
000002f0: 8c78 aebd 08d5 db3d b383 8abd 3dcc 8cbd
00000300: a229 ba3c cd74 98bd 90f2 b03d b26b 2ebc
00000310: ea83 393d e75c a83d 922f 6f3d d364 d7bd
00000320: 35be a03d c08b 6abc 554f bdbd 9392 52bd
00000330: f025 60bd 36f6 9e3d 45ff cfbd b84c a9bd
00000340: 825e 0cbd 9cee 2fbd 417f b7bd c213 99bd
00000350: 5bb7 c43d 411b 9c3d b87b efbb 8a5c 09be
00000360: c2a5 ae3c 36cc 343d 5683 b1bd 4867 343d
00000370: 5415 a93d caf0 c9bc e8f9 d63d 4505 93bd
00000380: 8e47 a43d 2a50 863d e0db 88bd 91d0 9f3c
00000390: 9ad9 903c 2201 363d 3084 503b 3858 8e3d
000003a0: ce9a 76bd dab5 51bd 1b4f 54bc 0636 ad3d
000003b0: 06d1 cdbd 5d8e 30bc 56c0 cb3d 340d 3f3c
000003c0: bb05 a5bd 3047 4e3d 253f 70bd 7c37 023b
000003d0: 720c b73d c6c1 f63c 855b 50bd 3b3d 6d3d
000003e0: a2de 2e3d f840 ab3c 17da 8d3d 58ae 83bc
000003f0: 4b50 013d e2a0 c33d 7e1f a63d 16ec 9abc
0.003968159 -0.0055928202 0.060438167 0.054552834 0.06974031 -0.018436577 0.028190281 -0.07339368
0.08272979 -0.12238797 0.041536983 0.046033468 -0.027182672 -0.045400515 0.02855379 0.10098027
-0.04020397 0.053322602 -0.020679478 -0.08806525 -0.030291352 -0.05050356 0.06541628 0.04743802
0.08652614 -0.08719346 -0.107193686 0.030278066 0.017315196 -0.07905926 0.07309241 -0.1305475
-0.014350109 -0.07086684 0.009205627 0.05564487 0.043257944 0.042513423 -0.1042846 -0.08457953
-0.017224189 -0.041227948 -0.028552055 0.056652673 0.051825058 0.010824259 0.057953905 -0.1356473
0.06516613 -0.021831602 -0.119882956 0.10242124 0.04703916 0.0865267 -0.093369074 0.03339219
0.07456791 0.11869117 0.049889237 -0.075042516 -0.073282234 -0.091808595 -0.028779903 -0.0086053405
-0.08637218 0.11081567 0.021806965 0.048124194 -0.057251442 0.006994418 -0.06258905 0.15173194
0.031779196 0.044262536 -0.04238085 0.0070497333 -0.07600133 -0.11399523 0.09757509 0.019380834
-0.00955581 0.1505564 0.05546254 -0.06538782 -0.07763925 0.10031064 0.07376941 0.077894285
-0.04302766 -0.077538915 0.06077972 -0.01981941 0.009019621 -0.04255595 0.071049556 0.08317162
-0.08426237 -0.07156276 0.015085923 -0.06538916 -0.028259873 0.01156288 -0.011440014 -0.10178222
-0.008339515 0.040048808 -0.010857148 -0.037626885 0.04634721 0.056053422 0.0625561 -0.07489825
0.0846899 -0.09177144 -0.07777829 0.04279817 0.06723027 -0.07528816 0.095922604 0.06785703
0.045157604 0.07952869 0.0186039 -0.08016091 0.020223092 -0.055045523 0.03487079 0.109898366
0.09536809 -0.047113888 0.048118167 -0.041210324 -0.056538444 -0.09583838 -0.07339104 0.0013772913
0.012649688 -0.02840488 0.010308556 -0.07059199 -0.07580738 -0.018560294 -0.06152784 0.068306625
0.03348691 0.07322101 0.046069384 -0.057916682 -0.058825992 -0.044884287 -0.028348604 -0.015993739
-0.0106990235 0.025457382 -0.06417492 0.046850495 -0.08731364 -0.04380536 -0.0015505279 -0.06991866
-0.043939855 0.08482164 0.027966762 -0.069197714 -0.012104774 0.12543572 -0.05530261 0.06894297
0.09762725 -0.002967129 0.053283732 0.040463153 0.091370285 -0.06953826 0.05464995 0.09755544
-0.07207467 0.023318615 -0.048611835 0.053703956 -0.072546266 -0.10212233 -0.045994077 -0.026293118
-0.017452488 -0.066936746 0.039795082 0.02189581 -0.08519086 0.10733992 -0.06763401 -0.06874893
0.02272493 -0.07444153 0.08640015 -0.010645794 0.04529182 0.08220845 0.058394976 -0.105172776
0.07848779 -0.014315546 -0.09243647 -0.051409315 -0.05472368 0.07761805 -0.10156111 -0.08266586
-0.034269817 -0.042952165 -0.08959819 -0.07474472 0.09605285 0.07622386 -0.0073084496 -0.13414207
0.021319274 0.044140063 -0.086676285 0.04404381 0.08256021 -0.02465095 0.104968846 -0.071787395
0.080214605 0.06558259 -0.06682563 0.019508632 0.017681886 0.044434674 0.003181707 0.0695042
-0.060206227 -0.051198818 -0.012958313 0.0845757 -0.10049634 -0.01077613 0.099487945 0.011660863
-0.080577336 0.05036086 -0.05865397 0.0019869497 0.08937921 0.030121695 -0.05086853 0.057919722
0.042692788 0.020905003 0.06926363 -0.016074345 0.031570714 0.0955217 0.081114754 -0.018911403
